…
":1000}},"source":["\n","use_cuda = torch.cuda.is_available()\n","device = torch.device(\"cuda\" if use_cuda else \"cpu\")\n","if device == 'cuda':\n","    net = torch.nn.DataParallel(net)\n","    cudnn.benchmark = True\n","\n","model = nn1.to(device)\n","summary(model, input_size=(3, 32, 32))\n"],"execution_count":3,"outputs":[{"output_type":"stream","text":["----------------------------------------------------------------\n","        Layer (type)               Output Shape         Param #\n","================================================================\n","            Conv2d-1           [-1, 64, 32, 32]           1,728\n","       BatchNorm2d-2           [-1, 64, 32, 32]             128\n","            Conv2d-3           [-1, 64, 32, 32]          36,864\n","       BatchNorm2d-4           [-1, 64, 32, 32]             128\n","            Conv2d-5           [-1, 64, 32, 32]          36,864\n","       BatchNorm2d-6           [-1, 64, 32, 32]             128\n","        BasicBlock-7           [-1, 64, 32, 32]               0\n","            Conv2d-8           [-1, 64, 32, 32]          36,864\n","       BatchNorm2d-9           [-1, 64, 32, 32]             128\n","           Conv2d-10           [-1, 64, 32, 32]          36,864\n","      BatchNorm2d-11           [-1, 64, 32, 32]             128\n","       BasicBlock-12           [-1, 64, 32, 32]               0\n","           Conv2d-13          [-1, 128, 16, 16]          73,728\n","      BatchNorm2d-14          [-1, 128, 16, 16]             256\n","           Conv2d-15          [-1, 128, 16, 16]         147,456\n","      BatchNorm2d-16          [-1, 128, 16, 16]             256\n","           Conv2d-17          [-1, 128, 16, 16]           8,192\n","      BatchNorm2d-18          [-1, 128, 16, 16]             256\n","       BasicBlock-19          [-1, 128, 16, 16]               0\n","           Conv2d-20          [-1, 128, 16, 16]         147,456\n","      BatchNorm2d-21          [-1, 128, 16, 16]             256\n","           Conv2d-22          [-1, 128, 16, 16]         147,456\n","      BatchNorm2d-23          [-1, 128, 16, 16]             256\n","       BasicBlock-24          [-1, 128, 16, 16]               0\n","           Conv2d-25            [-1, 256, 8, 8]         294,912\n","      BatchNorm2d-26            [-1, 256, 8, 8]             512\n","           Conv2d-27            [-1, 256, 8, 8]         589,824\n","      BatchNorm2d-28            [-1, 256, 8, 8]             512\n","           Conv2d-29            [-1, 256, 8, 8]          32,768\n","      BatchNorm2d-30            [-1, 256, 8, 8]             512\n","       BasicBlock-31            [-1, 256, 8, 8]               0\n","           Conv2d-32            [-1, 256, 8, 8]         589,824\n","      BatchNorm2d-33            [-1, 256, 8, 8]             512\n","           Conv2d-34            [-1, 256, 8, 8]         589,824\n","      BatchNorm2d-35            [-1, 256, 8, 8]             512\n","       BasicBlock-36            [-1, 256, 8, 8]               0\n","           Conv2d-37            [-1, 512, 4, 4]       1,179,648\n","      BatchNorm2d-38            [-1, 512, 4, 4]           1,024\n","           Conv2d-39            [-1, 512, 4, 4]       2,359,296\n","      BatchNorm2d-40            [-1, 512, 4, 4]           1,024\n","           Conv2d-41            [-1, 512, 4, 4]         131,072\n","      BatchNorm2d-42            [-1, 512, 4, 4]           1,024\n","       BasicBlock-43            [-1, 512, 4, 4]               0\n","           Conv2d-44            [-1, 512, 4, 4]       2,359,296\n","      BatchNorm2d-45            [-1, 512, 4, 4]           1,024\n","           Conv2d-46            [-1, 512, 4, 4]       2,359,296\n","      BatchNorm2d-47            [-1, 512, 4, 4]           1,024\n","       BasicBlock-48            [-1, 512, 4, 4]               0\n","           Linear-49                   [-1, 10]           5,130\n","================================================================\n","Total params: 11,173,962\n","Trainable params: 11,173,962\n","Non-trainable params: 0\n","----------------------------------------------------------------\n","Input size (MB): 0.01\n","Forward/backward pass size (MB): 11.25\n","Params size (MB): 42.63\n","Estimated Total Size (MB): 53.89\n","---------------------------------
…
